…
cutionInfo":{"status":"ok","timestamp":1748651278882,"user_tz":-120,"elapsed":1806,"user":{"displayName":"Antonio","userId":"04509716177869496437"}},"outputId":"2481cebd-f20d-4265-bcb9-380f46b43a11"},"execution_count":null,"outputs":[{"output_type":"stream","name":"stdout","text":["\n","Inizializzazione del Modello Transformer\n","Transformer Model Initialized:\n","  Raw concatenated feature dim: 129\n","  Projected to d_model: 128\n","  Num heads: 4, Num encoder layers: 2, Dim feedforward: 512\n","\n","Modello Transformer istanziato.\n","Transformer(\n","  (embeddings): ModuleList(\n","    (0): Embedding(27767, 16)\n","    (1): Embedding(29962, 16)\n","    (2): Embedding(13078, 16)\n","    (3): Embedding(11642, 16)\n","    (4): Embedding(6, 16)\n","    (5): Embedding(10, 16)\n","    (6): Embedding(7, 16)\n","    (7): Embedding(2, 16)\n","  )\n","  (input_projection): Linear(in_features=129, out_features=128, bias=True)\n","  (pos_encoder): PositionalEncoding(\n","    (dropout): Dropout(p=0.2, inplace=False)\n","  )\n","  (transformer_encoder): TransformerEncoder(\n","    (layers): ModuleList(\n","      (0-1): 2 x TransformerEncoderLayer(\n","        (self_attn): MultiheadAttention(\n","          (out_proj): NonDynamicallyQuantizableLinear(in_features=128, out_features=128, bias=True)\n","        )\n","        (linear1): Linear(in_features=128, out_features=512, bias=True)\n","        (dropout): Dropout(p=0.2, inplace=False)\n","        (linear2): Linear(in_features=512, out_features=128, bias=True)\n","        (norm1): LayerNorm((128,), eps=1e-05, elementwise_affine=True)\n","        (norm2): LayerNorm((128,), eps=1e-05, elementwise_affine=True)\n","        (dropout1): Dropout(p=0.2, inplace=False)\n","        (dropout2): Dropout(p=0.2, inplace=False)\n","      )\n","    )\n","  )\n","  (dropout): Dropout(p=0.2, inplace=False)\n","  (fc_classifier): Linear(in_features=128, out_features=1, bias=True)\n",")\n","\n","Loss function e optimizer definiti per Transformer.\n","\n","DataLoaders creati.\n","Numero di batch in train_loader: 4787\n","Numero di batch in val_loader: 843\n","\n","Forma di un batch di input X: torch.Size([32, 60, 9])\n","Forma di un batch di output y: torch.Size([32])\n"]}]},{"cell_type":"code","source":["# Ciclo di Training per il
…
